models/best_model.pth (torch, 717602 bytes, 12 tensors)

feature_extractor.spectrogram.window f4 [400]
00000000: 0000 0000 0060 8138 005c 8139 0082 113a
00000010: 0052 813a 0007 ca3a 006d 113b 00e3 453b
00000020: 4031 813b c073 a33b c0b6 c93b 00f8 f33b
00000030: 601a 113c e034 2a3c 404a 453c 8058 623c
00000040: f0ae 803c 402c 913c 10a3 a23c 6012 b53c
00000050: f078 c83c a0d5 dc3c 0027 f23c e835 043d
00000060: 58d1 0f3d 10e5 1b3d 4070 283d 3072 353d
00000070: 08ea 423d f0d6 503d f837 5f3d 480c 6e3d
00000080: f052 7d3d 7885 863d a499 8e3d 80e5 963d
00000090: 8068 9f3d 2022 a83d cc11 b13d f836 ba3d
000000a0: 0c91 c33d 781f cd3d 9ce1 d63d dcd6 e03d
000000b0: 94fe ea3d 2458 f53d e4e2 ff3d 144f 053e
000000c0: a2c4 0a3e c051 103e 1af6 153e 52b1 1b3e
000000d0: 0c83 213e e86a 273e 8a68 2d3e 8c7b 333e
000000e0: 92a3 393e 34e0 3f3e 0e31 463e b895 4c3e
000000f0: d00d 533e ea98 593e 9c36 603e 7ce6 663e
00000100: 1ea8 6d3e 147b 743e ee5e 7b3e a029 813e
00000110: ccab 843e c235 883e 48c7 8b3e 2760 8f3e
00000120: 2200 933e 00a7 963e 8654 9a3e 7608 9e3e
00000130: 97c2 a13e ac82 a53e 7948 a93e c013 ad3e
00000140: 44e4 b03e c6b9 b43e 0a94 b83e d272 bc3e
00000150: dd55 c03e ee3c c43e c527 c83e 2316 cc3e
00000160: c807 d03e 76fc d33e ebf3 d73e e7ed db3e
00000170: 2bea df3e 76e8 e33e 87e8 e73e 1dea eb3e
00000180: f8ec ef3e d5f0 f33e 77f5 f73e 9cfa fb3e
00000190: 0000 003f b302 023f 4505 043f 9607 063f
000001a0: 8609 083f f30a 0a3f be0b 0c3f c70b 0e3f
000001b0: ec0a 103f 0e09 123f 0c06 143f c701 163f
000001c0: 1dfc 173f f0f4 193f 1fec 1b3f 8be1 1d3f
000001d0: 13d5 1f3f 99c6 213f fbb5 233f 1ea3 253f
000001e0: df8d 273f 2176 293f c45b 2b3f aa3e 2d3f
000001f0: b51e 2f3f c6fb 303f bfd5 323f 82ac 343f
00000200: f07f 363f ee4f 383f 5d1c 3a3f 21e5 3b3f
00000210: 1caa 3d3f 326b 3f3f 4628 413f 3ce1 423f
00000220: fa95 443f 6246 463f 5af2 473f c799 493f
00000230: 8e3c 4b3f 93da 4c3f be73 4e3f f507 503f
00000240: 1e97 513f 1e21 533f e0a5 543f 4825 563f
00000250: 3e9f 573f ad13 593f 7a82 5a3f 90eb 5b3f
00000260: d84e 5d3f 3cac 5e3f a403 603f fc54 613f
00000270: 2ea0 623f 25e5 633f cd23 653f 125c 663f
00000280: df8d 673f 22b9 683f c7dd 693f bcfb 6a3f
00000290: f012 6c3f 5023 6d3f cc2c 6e3f 522f 6f3f
000002a0: d22a 703f 3c1f 713f 810c 723f 92f2 723f
000002b0: 60d1 733f dea8 743f fc78 753f b041 763f
000002c0: eb02 773f a2bc 773f c86e 783f 5419 793f
000002d0: 39bc 793f 6e57 7a3f e8ea 7a3f 9e76 7b3f
000002e0: 89fa 7b3f 9e76 7c3f d8ea 7c3f 2c57 7d3f
000002f0: 97bb 7d3f 1018 7e3f 926c 7e3f 18b9 7e3f
00000300: 9efd 7e3f 1d3a 7f3f 936e 7f3f fc9a 7f3f
00000310: 57bf 7f3f a0db 7f3f d4ef 7f3f f5fb 7f3f
00000320: 0000 803f f5fb 7f3f d4ef 7f3f a0db 7f3f
00000330: 57bf 7f3f fc9a 7f3f 936e 7f3f 1c3a 7f3f
00000340: 9dfd 7e3f 18b9 7e3f 926c 7e3f 1018 7e3f
00000350: 96bb 7d3f 2c57 7d3f d7ea 7c3f 9e76 7c3f
00000360: 88fa 7b3f 9e76 7b3f e7ea 7a3f 6c57 7a3f
00000370: 38bc 793f 5219 793f c86e 783f a0bc 773f
00000380: ea02 773f ae41 763f fb78 753f dca8 743f
00000390: 5ed1 733f 90f2 723f 800c 723f 3a1f 713f
000003a0: d02a 703f 502f 6f3f ca2c 6e3f 5023 6d3f
000003b0: f012 6c3f bcfb 6a3f c6dd 693f 21b9 683f
000003c0: de8d 673f 105c 663f cc23 653f 24e5 633f
000003d0: 2da0 623f fb54 613f a303 603f 3aac 5e3f
000003e0: d74e 5d3f 8feb 5b3f 7882 5a3f aa13 593f
000003f0: 3c9f 573f 4525 563f dda5 543f 1c21 533f
0.0 6.169081e-05 0.00024673343 0.00055506825 0.0009866357 0.0015413463 0.0022190213 0.0030195117
0.0039426386 0.0049881637 0.0061558187 0.0074453354 0.008856386 0.010388583 0.012041628 0.013815045
0.015708417 0.017721295 0.019853145 0.022103488 0.02447173 0.026957333 0.029559612 0.03227797
0.035111755 0.038060248 0.041122675 0.04429835 0.04758647 0.05098623 0.054496735 0.05811718
0.061846673 0.06568426 0.069628984 0.073679924 0.07783604 0.08209634 0.086459726 0.09092516
0.0954915 0.10015768 0.1049225 0.10978481 0.11474338 0.11979702 0.12494448 0.13018447
0.13551572 0.14093685 0.14644662 0.15204361 0.15772647 0.16349375 0.1693441 0.17527598
0.18128803 0.1873787 0.1935465 0.19978988 0.20610738 0.21249738 0.21895832 0.2254886
0.23208663 0.23875076 0.24547932 0.2522707 0.2591232 0.26603514 0.27300477 0.28003046
0.2871104 0.29424286 0.3014261 0.3086583 0.31593773 0.32326257 0.33063105 0.3380413
0.34549153 0.35297984 0.36050445 0.3680635 0.37565508 0.38327736 0.39092842 0.3986064
0.40630937 0.4140355 0.42178282 0.42954943 0.43733343 0.4451329 0.45294592 0.46077052
0.4686048 0.47644678 0.48429462 0.49214637 0.5 0.5078537 0.5157054 0.52355325
0.5313953 0.5392296 0.5470542 0.5548672 0.56266665 0.57045066 0.57821727 0.5859646
0.5936907 0.6013937 0.6090717 0.61672276 0.624345 0.6319366 0.63949555 0.6470202
0.65450853 0.66195875 0.669369 0.6767374 0.6840623 0.69134176 0.698574 0.70575726
0.7128897 0.71996963 0.7269953 0.733965 0.7408769 0.7477294 0.7545208 0.7612493
0.76791346 0.77451146 0.78104174 0.7875027 0.79389274 0.8002102 0.8064536 0.8126214
0.8187121 0.8247241 0.83065605 0.83650637 0.8422736 0.8479565 0.8535534 0.85906315
0.8644843 0.8698156 0.87505555 0.880203 0.88525665 0.8902152 0.8950775 0.8998424
0.90450853 0.9090749 0.9135403 0.91790366 0.92216396 0.9263201 0.93037105 0.9343158
0.9381534 0.94188285 0.9455033 0.9490138 0.95241356 0.9557017 0.9588773 0.9619398
0.9648883 0.96772206 0.9704404 0.9730427 0.9755283 0.9778966 0.9801469 0.9822787
0.9842916 0.98618495 0.98795843 0.9896114 0.99114364 0.99255466 0.99384415 0.9950118
0.9960574 0.9969805 0.997781 0.9984586 0.99901336 0.99944496 0.99975324 0.9999383
1.0 0.9999383 0.99975324 0.99944496 0.99901336 0.9984586 0.997781 0.9969804
0.99605733 0.9950118 0.99384415 0.99255466 0.9911436 0.9896114 0.9879584 0.98618495
0.98429155 0.9822787 0.9801468 0.97789645 0.97552824 0.9730426 0.9704404 0.96772194
0.9648882 0.9619397 0.95887727 0.9557016 0.95241344 0.9490137 0.94550323 0.9418827
0.93815327 0.9343157 0.9303709 0.9263201 0.92216396 0.91790366 0.91354024 0.90907484
0.9045085 0.89984226 0.89507747 0.89021516 0.8852566 0.88020295 0.8750555 0.86981547
0.86448425 0.8590631 0.8535533 0.8479563 0.8422735 0.8365062 0.8306559 0.82472396

feature_extractor.mel_scale.fb f4 [201, 80]
00000000: 0000 0080 0000 0000 0000 0000 0000 0000
00000010: 0000 0000 0000 0000 0000 0000 0000 0000
00000020: 0000 0000 0000 0000 0000 0000 0000 0000
00000030: 0000 0000 0000 0000 0000 0000 0000 0000
00000040: 0000 0000 0000 0000 0000 0000 0000 0000
00000050: 0000 0000 0000 0000 0000 0000 0000 0000
00000060: 0000 0000 0000 0000 0000 0000 0000 0000
00000070: 0000 0000 0000 0000 0000 0000 0000 0000
00000080: 0000 0000 0000 0000 0000 0000 0000 0000
00000090: 0000 0000 0000 0000 0000 0000 0000 0000
000000a0: 0000 0000 0000 0000 0000 0000 0000 0000
000000b0: 0000 0000 0000 0000 0000 0000 0000 0000
000000c0: 0000 0000 0000 0000 0000 0000 0000 0000
000000d0: 0000 0000 0000 0000 0000 0000 0000 0000
000000e0: 0000 0000 0000 0000 0000 0000 0000 0000
000000f0: 0000 0000 0000 0000 0000 0000 0000 0000
00000100: 0000 0000 0000 0000 0000 0000 0000 0000
00000110: 0000 0000 0000 0000 0000 0000 0000 0000
00000120: 0000 0000 0000 0000 0000 0000 0000 0000
00000130: 0000 0000 0000 0000 0000 0000 0000 0000
00000140: 51a4 5d3e ec96 483f 0000 0000 0000 0000
00000150: 0000 0000 0000 0000 0000 0000 0000 0000
00000160: 0000 0000 0000 0000 0000 0000 0000 0000
00000170: 0000 0000 0000 0000 0000 0000 0000 0000
00000180: 0000 0000 0000 0000 0000 0000 0000 0000
00000190: 0000 0000 0000 0000 0000 0000 0000 0000
000001a0: 0000 0000 0000 0000 0000 0000 0000 0000
000001b0: 0000 0000 0000 0000 0000 0000 0000 0000
000001c0: 0000 0000 0000 0000 0000 0000 0000 0000
000001d0: 0000 0000 0000 0000 0000 0000 0000 0000
000001e0: 0000 0000 0000 0000 0000 0000 0000 0000
000001f0: 0000 0000 0000 0000 0000 0000 0000 0000
00000200: 0000 0000 0000 0000 0000 0000 0000 0000
00000210: 0000 0000 0000 0000 0000 0000 0000 0000
00000220: 0000 0000 0000 0000 0000 0000 0000 0000
00000230: 0000 0000 0000 0000 0000 0000 0000 0000
00000240: 0000 0000 0000 0000 0000 0000 0000 0000
00000250: 0000 0000 0000 0000 0000 0000 0000 0000
00000260: 0000 0000 0000 0000 0000 0000 0000 0000
00000270: 0000 0000 0000 0000 0000 0000 0000 0000
00000280: 0000 0000 0000 0000 b68c 063f 95e6 f23e
00000290: 0000 0000 0000 0000 0000 0000 0000 0000
000002a0: 0000 0000 0000 0000 0000 0000 0000 0000
000002b0: 0000 0000 0000 0000 0000 0000 0000 0000
000002c0: 0000 0000 0000 0000 0000 0000 0000 0000
000002d0: 0000 0000 0000 0000 0000 0000 0000 0000
000002e0: 0000 0000 0000 0000 0000 0000 0000 0000
000002f0: 0000 0000 0000 0000 0000 0000 0000 0000
00000300: 0000 0000 0000 0000 0000 0000 0000 0000
00000310: 0000 0000 0000 0000 0000 0000 0000 0000
00000320: 0000 0000 0000 0000 0000 0000 0000 0000
00000330: 0000 0000 0000 0000 0000 0000 0000 0000
00000340: 0000 0000 0000 0000 0000 0000 0000 0000
00000350: 0000 0000 0000 0000 0000 0000 0000 0000
00000360: 0000 0000 0000 0000 0000 0000 0000 0000
00000370: 0000 0000 0000 0000 0000 0000 0000 0000
00000380: 0000 0000 0000 0000 0000 0000 0000 0000
00000390: 0000 0000 0000 0000 0000 0000 0000 0000
000003a0: 0000 0000 0000 0000 0000 0000 0000 0000
000003b0: 0000 0000 0000 0000 0000 0000 0000 0000
000003c0: 0000 0000 0000 0000 0000 0000 0000 0000
000003d0: 385a 6a3f 3f2e ad3d 0000 0000 0000 0000
000003e0: 0000 0000 0000 0000 0000 0000 0000 0000
000003f0: 0000 0000 0000 0000 0000 0000 0000 0000
-0.0 0.0 0.0 0.0 0.0 0.0 0.0 0.0
0.0 0.0 0.0 0.0 0.0 0.0 0.0 0.0
0.0 0.0 0.0 0.0 0.0 0.0 0.0 0.0
0.0 0.0 0.0 0.0 0.0 0.0 0.0 0.0
0.0 0.0 0.0 0.0 0.0 0.0 0.0 0.0
0.0 0.0 0.0 0.0 0.0 0.0 0.0 0.0
0.0 0.0 0.0 0.0 0.0 0.0 0.0 0.0
0.0 0.0 0.0 0.0 0.0 0.0 0.0 0.0
0.0 0.0 0.0 0.0 0.0 0.0 0.0 0.0
0.0 0.0 0.0 0.0 0.0 0.0 0.0 0.0
0.21644713 0.7835529 0.0 0.0 0.0 0.0 0.0 0.0
0.0 0.0 0.0 0.0 0.0 0.0 0.0 0.0
0.0 0.0 0.0 0.0 0.0 0.0 0.0 0.0
0.0 0.0 0.0 0.0 0.0 0.0 0.0 0.0
0.0 0.0 0.0 0.0 0.0 0.0 0.0 0.0
0.0 0.0 0.0 0.0 0.0 0.0 0.0 0.0
0.0 0.0 0.0 0.0 0.0 0.0 0.0 0.0
0.0 0.0 0.0 0.0 0.0 0.0 0.0 0.0
0.0 0.0 0.0 0.0 0.0 0.0 0.0 0.0
0.0 0.0 0.0 0.0 0.0 0.0 0.0 0.0
0.0 0.0 0.5255846 0.47441545 0.0 0.0 0.0 0.0
0.0 0.0 0.0 0.0 0.0 0.0 0.0 0.0
0.0 0.0 0.0 0.0 0.0 0.0 0.0 0.0
0.0 0.0 0.0 0.0 0.0 0.0 0.0 0.0
0.0 0.0 0.0 0.0 0.0 0.0 0.0 0.0
0.0 0.0 0.0 0.0 0.0 0.0 0.0 0.0
0.0 0.0 0.0 0.0 0.0 0.0 0.0 0.0
0.0 0.0 0.0 0.0 0.0 0.0 0.0 0.0
0.0 0.0 0.0 0.0 0.0 0.0 0.0 0.0
0.0 0.0 0.0 0.0 0.0 0.0 0.0 0.0
0.0 0.0 0.0 0.0 0.9154391 0.08456086 0.0 0.0
0.0 0.0 0.0 0.0 0.0 0.0 0.0 0.0

conv1.weight f4 [32, 1, 3, 3]
00000000: 02b7 fabd 23aa 4dbe 9874 8f3d 236a 5f3e
00000010: 6580 37be f4cd 95be f5fe 10be 21f2 2ebe
00000020: 806f acbe 678e adbe 71f2 19be 2d61 893e
00000030: 78af a43e 085f 15be d4e9 8d3e cba0 a93d
00000040: dc3c 853e 2fcc 56be e6d1 673e 7eaa aebe
00000050: af92 c43d 96c3 273e f97e 8b3e 4091 303e
00000060: 6c71 29be ca5b 0b3c 0541 76bd 83b9 943e
00000070: 471b 9bbd 3490 0cbe b5a8 593d 8649 853e
00000080: d8c1 48be f5d7 d9bd d847 bfbd 87c5 a13e
00000090: 854c 94be 540f 043e fd52 c1bd 3ea6 91be
000000a0: ce90 6a3e 59b8 593e c9b2 123e 0717 b83d
000000b0: 829f 263e 4f6b 113e 1910 0ebe 2237 663e
000000c0: f634 67be 45e1 1cbc 6128 8ebc 107b 9e3d
000000d0: 05c6 6dbe 5e52 abbd 83d7 353e 6f94 17bd
000000e0: 14d8 6a3e 5311 11be dd7c f6bd 759c 983e
000000f0: 3f52 6b3e 68e0 333e ba40 85be 8c28 083e
00000100: 64f2 2f3e 0751 44be fcca 81be 2a2b 46bc
00000110: 0a6c 1d3e f640 5bbd 4fdc 183d 55de bf3c
00000120: 313c 823d f1d7 a33e d2b1 9f3e f43c c93d
00000130: cfc3 cbbd 34f2 a0be b068 67be 59b7 2abe
00000140: c50a ffbd 65b2 6bbe 17cf 22be dcb8 47bd
00000150: 313d 49be a792 783e 012a 803e eb95 113e
00000160: dac8 9a3d ae08 99be 28fd 9f3e 51ab cc3d
00000170: 20e8 fb3d 29d3 153c eb96 1cbe c724 e7bb
00000180: a531 23be dc65 103e 64e3 a6be 6bf8 9d3e
00000190: 76a4 893e 0f9a 4dbe b9f4 313d aa0d 993d
000001a0: cbba 2bbe 7134 a2be 9773 103e e6a6 99be
000001b0: 16e3 ef3d c36f 78bc 00c0 f93c 7f95 9a3e
000001c0: 32eb c33d 8dc4 36be c7cf 0d3e 8afb a23e
000001d0: c609 8cbe e947 213e 1cbf 8d3b 0d83 3dbd
000001e0: eada 383e ca54 a6be b57d dcbd 4c44 0a3e
000001f0: b372 98be 3462 93be d7d0 24be 933d 6dbe
00000200: 86d7 febd cae6 6f3e 621c 123d 6efc 373d
00000210: fac5 9f3b 7655 99be 05bf 29be 8888 efbd
00000220: 8d42 5e3e c023 2dbd e912 853d 98d9 bc3c
00000230: 55f6 823e b39b bf3d e662 bebd b3d8 0b3e
00000240: d231 943e 51b9 22be 272c acbe c915 a1bd
00000250: 0999 1dbd 26bb 8e3d 69a7 cc3c 6ed2 8dbe
00000260: 96f9 56be 0a3c b8bd 1089 5bbe 56d1 303e
00000270: 8b6a e33d 0182 643e 298a 81be e9fd 7b3e
00000280: 072f 49be eb48 453e f7a1 4e3e 7814 6ebe
00000290: 545c 4e3d 9918 1a3e abc1 663e 807e 2bbe
000002a0: c4cb 8fbe 5649 413e e941 43be 573d 393e
000002b0: 2b36 9a3e 9f3f 70bd 2e30 e73c cede 9d3d
000002c0: 94b0 92bd 146e 7cbe c139 073e e978 933e
000002d0: 98d6 5e3e cd41 92be 8103 72be 7b4e 4dbe
000002e0: 2d88 0f3e 0ddc 1d3e 39c3 593e 7ca1 85be
000002f0: ab67 753e 3229 4d3e 11fe 95be ba69 94be
00000300: c35e a43e 6204 2dbd 2a66 bf3c 62a3 443e
00000310: 2a5f 063e c5d7 37be 1799 8d3e bd6a a3be
00000320: e145 07be 595d b63d b719 c23d 9136 223e
00000330: 273a f33d f350 1c3e f797 b3bd ecae 18be
00000340: 380f 133e 1cba fdbc 8c77 293e ec45 9dbe
00000350: 8cb4 2c3e 1fd8 e2bc 1bd0 e43d 16f2 913e
00000360: 5d9c 6dbe 2aa1 113e 3b76 1a3e a1bf 93bd
00000370: 53e6 98bd dc49 b3bd 2e15 afbe dcd9 a73d
00000380: 1206 41be 3342 39be ad1d 873e f40b 5c3d
00000390: 3c5c 903e e2b8 80be b8c3 a2bd 7d0a 4dbe
000003a0: 2894 01be 5489 25be 226d c03d c729 993e
000003b0: 173c 15be 3825 37be c015 843e 9cda 883d
000003c0: 8cf7 9dbd 2794 8bbe b139 86be f453 3fbe
000003d0: 8bc6 83be 3762 86be 06cb 9fbe 9cf0 003e
000003e0: 8465 47bd ed77 4cbe 4143 fe3d 438d 88bc
000003f0: 6168 4b3e fb99 b13d f66b 38bd 2f7c a0be
-0.12241937 -0.20084433 0.0700466 0.21817832 -0.17920072 -0.29258692 -0.14159758 -0.17084552
-0.33678818 -0.33897707 -0.1503389 0.26831952 0.32165122 -0.14587033 0.2771746 0.08282622
0.26022995 -0.20976327 0.22638664 -0.3411445 0.0959829 0.16383204 0.2724531 0.17242908
-0.16547173 0.008505771 -0.0601206 0.29047784 -0.07573562 -0.13726884 0.053139407 0.26032656
-0.19605196 -0.10636894 -0.09339875 0.31596014 -0.2896463 0.12896472 -0.09439657 -0.28447145
0.22906801 0.2126173 0.14326014 0.08988767 0.16271785 0.14201091 -0.13873328 0.22481969
-0.22578797 -0.009575193 -0.017353239 0.07738316 -0.2322007 -0.0836532 0.17757992 -0.03700679
0.2293399 -0.14166765 -0.120355345 0.29806867 0.22980593 0.17566073 -0.26025945 0.13296717
0.17182308 -0.19171534 -0.25350177 -0.012095252 0.15373245 -0.05352875 0.037319478 0.023421446
0.06359137 0.32000688 0.31190354 0.09826079 -0.09949457 -0.31434786 -0.22598529 -0.16671504
-0.12453226 -0.23017271 -0.15899311 -0.04876028 -0.19652249 0.24274693 0.25032046 0.14217345
0.07557841 -0.29889435 0.3124783 0.099936135 0.12300134 0.009144583 -0.15291946 -0.0070539447
-0.15936907 0.14101356 -0.3259536 0.3085359 0.26883286 -0.200783 0.043446276 0.07473309
-0.16770475 -0.31680635 0.14106594 -0.30010146 0.11713235 -0.015163365 0.03048706 0.3019218
0.09566344 -0.17848416 0.13848792 0.31832534 -0.27351207 0.15750088 0.0043257605 -0.046267558
0.18052259 -0.32486564 -0.10766164 0.13502616 -0.2977501 -0.2878586 -0.16095291 -0.2316802
-0.124434516 0.23427883 0.0356716 0.04491847 0.0048758956 -0.29948014 -0.16576774 -0.11695963
0.21705075 -0.042270422 0.064977475 0.023052976 0.2557856 0.09355869 -0.09296207 0.13656883
0.2894426 -0.15891005 -0.33627436 -0.07865483 -0.038476024 0.069692895 0.024982171 -0.27699608
-0.20993647 -0.089958265 -0.21439004 0.17267355 0.11104306 0.22315218 -0.2530072 0.24608578
-0.19646846 0.19266097 0.20178972 -0.23249996 0.05038102 0.15048446 0.22534816 -0.16747475
-0.28085148 0.18875632 -0.19068111 0.18089806 0.30119452 -0.058654424 0.028221216 0.07708512
-0.07162586 -0.24651366 0.13205625 0.28803185 0.21761549 -0.28565827 -0.23634149 -0.20049469
0.1401679 0.15415974 0.21265878 -0.26099765 0.23965327 0.20035246 -0.292954 -0.28986913
0.32103547 -0.042240508 0.023364145 0.1920295 0.1312224 -0.17953403 0.2765586 -0.31917372
-0.1321025 0.089045234 0.09477561 0.15841128 0.11876326 0.15265255 -0.08769219 -0.14910477
0.14361274 -0.030972533 0.1654951 -0.3071741 0.16865748 -0.027690945 0.111725055 0.2850501
-0.23204179 0.14221635 0.15084164 -0.07214285 -0.07465806 -0.08754322 -0.34195846 0.0819585
-0.18849972 -0.18091659 0.26389828 0.053722337 0.2819537 -0.25141054 -0.07947487 -0.20023532
-0.12654173 -0.16165668 0.093958154 0.29914686 -0.14573704 -0.17885292 0.25797844 0.066823214
-0.077132314 -0.2726147 -0.2621589 -0.1868437 -0.25737414 -0.26246807 -0.31209582 0.12591785
-0.048680797 -0.19967623 0.124151714 -0.016668921 0.19864036 0.086719476 -0.045024835 -0.31344745

conv1.bias f4 [32]
00000000: 8b21 a23e 4256 533d 03aa 223e 62fb 823e
00000010: c15f 563e c1de a2be a1fd a23d 68d4 19bd
00000020: ce9b b33c 1854 89bc 4028 0ebd d6d4 963e
00000030: f0d5 c8bd bbac a6be 0fef 98be 3b98 94bd
00000040: 75f9 193e 2e39 7a3d c7cd 14be 2ac3 6cbe
00000050: 22a3 27be 8163 bebd 7ed1 853e 5cdc 85be
00000060: 343a 1d3e 5972 a33e 5a0b 133e d869 6a3c
00000070: a477 903d 0f5b ab3c cd14 a9bd 27a6 953e
0.31666216 0.051595934 0.15885167 0.25582415 0.20934965 -0.31810573 0.07958532 -0.037556082
0.02192488 -0.016763732 -0.034706354 0.29459256 -0.0980643 -0.32553658 -0.29869887 -0.07255598
0.15036567 0.061089687 -0.14531623 -0.23121324 -0.16370824 -0.092963226 0.26136392 -0.26144683
0.15354234 0.31923178 0.14359799 0.014307462 0.0705407 0.020917444 -0.082559206 0.29228327

conv2.weight f4 [64, 32, 3, 3]
00000000: a77f 72bd 0f35 71bd 56e4 c1bc b856 1fbc
00000010: 840d 87bb 6220 8e3c 96bb 583d 5622 103d
00000020: 0018 d8bc d9a1 45bd 25a3 76bc a946 e73c
00000030: 7839 27bd c832 8bbc 1cea debc 39ea 3bbc
00000040: 3f45 5dbd 3985 103c 8ff5 c6bc 4f41 223d
00000050: c16d 7a3b ae08 093c 85c5 4a3d 542f 983b
00000060: 4a61 113d 58c4 08bd fe28 05bd af5a c93c
00000070: e173 78bc 7ee9 d2bb f630 83bc e25b 9a3a
00000080: e063 77bd 385e 6bbd 437a 1f3c 9197 dcbc
00000090: 490e 433c 83af 99bc 7a7d b5bc 181b 40bd
000000a0: ab83 393c c17a df3b dd08 21bd fd26 ad3c
000000b0: 4e08 40bc 58d7 cbbb ca0b 023c a494 88ba
000000c0: 02d1 f83b 0b15 acbb f99a 60bb 1327 c3bc
000000d0: 67ec 913c 6144 f0bc ea34 c83c 441a 013d
000000e0: fce0 563c e275 59bc e0bc e13b 474d 5bbb
000000f0: 0079 553d 8a1a 80bd 6e8a 3f3d 9ef8 ff3c
00000100: 6770 74bd 9d4b 443c 6e33 3abd deb6 2d3b
00000110: 6bf2 cd3b 5eab 683c db96 3b3c 5850 8dbc
00000120: 8a63 383d 4d95 86bc 3d4f b6bc 35d3 a73b
00000130: 98f1 103d 77b5 5d3d f4e3 7bba 3544 16bd
00000140: cb16 033d 55a1 0e3d 6c39 3f3d 9ea1 17bd
00000150: 1b4b 39bd 58d2 543c 5c45 83bc 2e63 55bd
00000160: 27fc a73c e905 1abd 2931 35bd dec5 0e3d
00000170: 993d 3ebd 3ffd 5fbd 8ac6 8cbc da30 d7bc
00000180: 9b0f 37bd 5c68 3ebd 043f 443d 8bd6 57bd
00000190: bd6d 6dbd 81fa 79bd 39c9 06bd a82b 983c
000001a0: 530b 733c 875a ef3c 839f 1ebd f110 b23c
000001b0: 7822 ebbc 2afb 213d 6dc7 3bbc a6d2 3c3d
000001c0: 40b3 64bd 437e 0d3d beb4 ebbc 6bbf 1fbc
000001d0: 14f0 4dbc 9812 283d da06 083d c9ff 06bd
000001e0: 86bc 2cbc aa33 083d c8cf ebbb e84a 2a3d
000001f0: 9690 023c a6d3 2e3a 25a4 28bc f951 9dbc
00000200: 236c 49bd bb37 68bc 0e9a c7bc c41c a8bc
00000210: 7b66 9d3c 5b77 b73c 0b10 743b ec6d 52bc
00000220: be67 e13c c518 5f3c c88f e23a db6a 2cbd
00000230: a945 c43c eb03 5b3d cb88 5a3b 587a 54bb
00000240: e864 d7ba 82e4 24bd 0551 b93b 41ca 843c
00000250: 703d 3cbd 9571 40bd bb0e 303d 23c8 d23c
00000260: fd2a 803b a7ce a83c d144 eebc 4cb3 a13c
00000270: 7cde dc3c 387d a93c cc08 473b 5dd9 3d3d
00000280: 83db d33c 7006 9cbc 3f18 8d3c ee58 853b
00000290: be3f 603d 269d 113d 390f 713c 765e 043d
000002a0: ecf5 32bc 074f dd3c 6607 c83c 415f 803c
000002b0: cf3d ff3c a34c 35bd df04 303c 180e 2e3d
000002c0: 8a3f f13b 7f8b 443d 6b11 89bc 5f6b c1bb
000002d0: 5ea7 b73c cc7f cabc 8b7a b0bc 1bb9 66bc
000002e0: 5e3d 253d b142 53bd 0971 563d 5d1e e2bc
000002f0: 8621 d3bc deaf 13bd b7df ea3b 50a9 b2bc
00000300: 87a2 3a3d 960d 0f3d 3f26 413d 843a 8f3c
00000310: c392 adbc 7624 d03c 6e41 ee3b ac98 9c3a
00000320: 10de a03c 4026 4c3c dae3 1ebd dcf5 c53b
00000330: 4cfa e8bc 8f56 7ebd 27c4 363d 5ca3 be3b
00000340: dde7 05bd 108e 2cbc d104 483d 0e18 183d
00000350: 77fd 3cbd 11d6 dc3b 11f2 a9ba 6f39 263d
00000360: 1ccd 593d ce41 45bd 88ea 93bb d8a0 143c
00000370: d68f bcbc 45f5 353d d906 473d 87ba 3fbc
00000380: 7c11 7b3d b7aa c4bb 8d45 0cbd 0a0c 363c
00000390: 4f0a 24bd dcbc aa3c 815a 29bd db50 cf3c
000003a0: 426a dcba d756 413d c180 6abc 5a43 23bd
000003b0: 4bb6 e33c 0010 9cbc 606f 383d f5f9 bcbc
000003c0: cde5 7bbd 73ab 543c 9645 29bc b7d7 9dbb
000003d0: a963 59bd 2e3a 173d 3c66 4abd 050b 14bd
000003e0: 4427 3fbd 5777 483d 0f3f 8d3b 8fe7 b23c
000003f0: cc12 43bd 4dbc eabc 5337 433d 0b1a 69bc
-0.05920377 -0.05888849 -0.02366845 -0.009725265 -0.0041214842 0.017349426 0.05291327 0.035188995
-0.026378632 -0.048250053 -0.015053545 0.028231936 -0.04082629 -0.016991988 -0.027211241 -0.011469417
-0.054021116 0.008820825 -0.024287013 0.039613064 0.003821239 0.008363886 0.049504776 0.004644314
0.035493173 -0.033390373 -0.032509796 0.024579374 -0.015164346 -0.006436526 -0.016014557 0.0011776651
-0.060397983 -0.0574629 0.009733739 -0.026927741 0.011905261 -0.018760448 -0.022154558 -0.04690084
0.011322896 0.0068200533 -0.039315093 0.021136755 -0.01172073 -0.0062207393 0.007937381 -0.0010420275
0.007593275 -0.005251532 -0.0034272058 -0.023822343 0.01781292 -0.02932948 0.024439294 0.03151919
0.013115164 -0.013272734 0.0068889707 -0.003346281 0.052117348 -0.06255062 0.046762876 0.03124648
-0.059677508 0.011980918 -0.045459203 0.0026506702 0.006285002 0.014201013 0.011449541 -0.017250225
0.045016803 -0.016428614 -0.02225458 0.0051216134 0.03538665 0.054128136 -0.0009608858 -0.03668614
0.03200416 0.034821827 0.04668562 -0.037019365 -0.04523764 0.012989603 -0.016024284 -0.05209654
0.020505978 -0.037603293 -0.044236336 0.03485667 -0.046445463 -0.054684874 -0.017184515 -0.026268411
-0.044692617 -0.046486244 0.04791166 -0.05269484 -0.057965983 -0.061029915 -0.032906745 0.018575504
0.014834243 0.029217971 -0.03872634 0.021736594 -0.02870296 0.03954617 -0.011461121 0.046099328
-0.05583501 0.03454424 -0.028772708 -0.009750227 -0.012569446 0.041033357 0.03320966 -0.03295878
-0.010542994 0.033252396 -0.0071964003 0.041575342 0.007969042 0.00066691113 -0.010293041 -0.019204127
-0.049175393 -0.014173443 -0.024365451 -0.020521529 0.019213906 0.02239578 0.0037241008 -0.01284359
0.027515288 0.013616745 0.0017285282 -0.042094093 0.023958998 0.053470533 0.0033345695 -0.0032421555
-0.0016433271 -0.040256985 0.0056554102 0.016209723 -0.04595703 -0.04698332 0.042982798 0.025730198
0.0039113746 0.020606352 -0.029085549 0.019738816 0.026961558 0.020689592 0.0030370234 0.046349872
0.025861507 -0.019046038 0.017223476 0.004069439 0.05474829 0.03555026 0.014713102 0.032316647
-0.01092289 0.027015222 0.02441759 0.01567042 0.031157402 -0.04426254 0.010743349 0.04249391
0.007362311 0.047984596 -0.016731938 -0.005902692 0.022418674 -0.024719141 -0.021542808 -0.0140822185
0.040341727 -0.051577274 0.052353892 -0.027602369 -0.025772821 -0.036056392 0.007167782 -0.02180925
0.045565154 0.034925066 0.047155615 0.017483957 -0.021188146 0.02540801 0.0072709834 0.0011947355
0.019637138 0.012460291 -0.038791515 0.0060412716 -0.028439663 -0.062094267 0.04462066 0.005817814
-0.032691825 -0.010531917 0.04883272 0.037132315 -0.04614016 0.006739386 -0.0012965818 0.040582117
0.053174123 -0.04815846 -0.0045140423 0.009071551 -0.023017805 0.04442336 0.048590515 -0.011702186
0.06129597 -0.006001796 -0.034246016 0.011111269 -0.040048894 0.020842008 -0.041346077 0.02530711
-0.0016816335 0.047201958 -0.014312924 -0.039859153 0.027796885 -0.019050598 0.04502809 -0.023068408
-0.061498452 0.01298033 -0.010331532 -0.004816975 -0.05307356 0.03692072 -0.049413905 -0.03614332
-0.046668306 0.048941936 0.0043104957 0.021838931 -0.047625348 -0.028654242 0.047660183 -0.0142274005

conv2.bias f4 [64]
00000000: b0db 7e3c affc 153d efa5 803a 1bbe 0fbd
00000010: 58bc f7bc d424 25ba e4ca 05bd a2e0 173b
00000020: f122 1ebd 81ad 0cbc b501 593c 76c2 a0bc
00000030: 203f 3f3d efef f93b d6d6 c83c fd22 84bd
00000040: 6235 dfb8 3eed b1bc d49b 123d 9727 5f3c
00000050: 772a b43c 5582 033d ee6e b7bc b0c2 06bb
00000060: 1a83 3c3d ae63 163d 5689 b03c b652 44bd
00000070: 32ad 24bd b949 80bd dfc4 24bd cfc0 5abd
00000080: 4b23 a13b 8ae9 1f3d b0b0 48bd ed4a 043d
00000090: def1 47bd 4f9f 8cbc be65 65bb 1415 f7b9
000000a0: 559a 8dbc 3941 72bd 92e3 9abc 34ca d4bb
000000b0: 388d b93c 3e12 59bc 26e5 95bc df65 42bd
000000c0: c220 20bd 1b35 39bd eed9 3cbd 2a7a 11bd
000000d0: 7cb0 3e38 f49b 15bd 2f94 183d a05a 11ba
000000e0: 4e7d 103d 4551 013d 48de 2bbd c470 3cbd
000000f0: 970f 393d ec15 10bd a971 373d d8d6 2ebd
0.015555307 0.03661793 0.0009815077 -0.035093408 -0.030241176 -0.00062997383 -0.032664195 0.0023174663
-0.03860754 -0.008586288 0.013245036 -0.019623976 0.04669106 0.0076274793 0.024516504 -0.06451986
-0.00010643412 -0.021719571 0.03579314 0.013620279 0.021992905 0.032106716 -0.022391763 -0.002056282
0.046023466 0.036716156 0.021549862 -0.04793044 -0.040204234 -0.062640615 -0.040226813 -0.053406533
0.0049175373 0.03904108 -0.048996627 0.032298017 -0.048814647 -0.017165808 -0.003500327 -0.00047127216
-0.017285505 -0.059144232 -0.018907342 -0.006493831 0.022650346 -0.013248978 -0.018297743 -0.047460433
-0.03909374 -0.04521666 -0.04610627 -0.035516895 4.5463894e-05 -0.03652568 0.037250694 -0.0005544815
0.03527575 0.031571645 -0.04196003 -0.04600598 0.045180883 -0.035177156 0.04478613 -0.04268536

conv3.weight f4 [128, 64, 3, 3]
00000000: cb2b 13bd 1e05 64bc 1f02 f43c 1f7e 62bc
00000010: 09c5 5fbc 1159 883c 321e cfbb 3c7b 22bd
00000020: 1890 19bd 4130 83bc 3b99 a73b bd7a 0bbd
00000030: 191a 073c e4fc 043d 0312 123d 1f51 a1bc
00000040: e99e 0c3d 4e9a 27bd d912 9f3c 39d2 2b3d
00000050: e77a 353c 0918 183c 540d 71bc 9b75 d5bc
00000060: e4aa 08bc d16a a7bc dd37 fa3c 9985 dbbb
00000070: d853 67bc 4636 1cbc 873e 7cbc 3955 1a3c
00000080: 8cfa cf3c 36e7 093d 6f1c bcbc 16b1 1ebd
00000090: 9445 cc3b 8fed 553c 563c 503b 075a 83bc
000000a0: c87f ef3c 2cd2 b9bc c95d 2abc 32ba 1abd
000000b0: a127 af3c 2408 83ba 2234 bebc d0bf 87bc
000000c0: 770f b53c e6a2 cd3c f5f8 07bd 9c6f e63c
000000d0: 1fa0 c1bc 1946 02bd 96c6 243c f14e f93c
000000e0: 6c08 983c 6ca7 91bb 4bef 1c3c 3234 ad3c
000000f0: 822a ae3c d810 9fbc 36b6 293c 11e6 d8bb
00000100: 90bb fb3c 4614 003d 410f 413c bb64 1cbd
00000110: ad90 2d3c ea6e d1bc 7130 d83c 6064 9e3c
00000120: ea42 c23c b5a0 d2bc cc54 a6bc f745 f839
00000130: b896 bb3c 7093 bd3c 1c0e 413c 83db c03c
00000140: 074c 41bc 1b32 a6bc b4d1 eebc 4837 f2bc
00000150: 545e 3b3c 0066 7f3c 4ec2 9fbc 6ecd 1cbd
00000160: 69ab 483b 4a74 5fbb 21a8 253d 589a a3bc
00000170: 9965 dcbc 3496 013d 632b 0ebd b111 21bd
00000180: 5622 2abd 5e72 15bc c825 133d ddf8 1fbd
00000190: 0da4 e1bc 9db4 35bc 9f18 e1bb e088 9d3c
000001a0: 1c9a d5bc 2f62 24bd 181c 9abc df90 2fbd
000001b0: 2b09 aebc 1ca5 80bc 0291 323d d91d 42bc
000001c0: 25ed cf3c 108b 09bd 60a0 6dbc cbe9 0bbc
000001d0: 18ca 4f3a 97b3 9dbc dcdd 80b8 315c 04bc
000001e0: 8b75 efbc 3bab 46bc b533 e13c aa71 c5bc
000001f0: 7439 4cbb d6ab 343b 3119 33bb 8721 14bd
00000200: d3f2 cd3b 6dea 33bc 87ba 81bc fbef d53b
00000210: 7f80 0fbd 507d e3b9 9a6a a0bc 0cb2 e9bb
00000220: be4d 553b 8d63 91bb e59d 173d d065 b5bc
00000230: ad4f bd3c 1cd3 373d 5563 623c 86dd 38bd
00000240: 259b 19bd 0abb aabc 141d 833c 8e26 f73a
00000250: fef2 a33b 1b05 233c 0e69 2abd 05fa 8c3c
00000260: 16de 253d 3bff 5a3c b9a4 24bc 82b0 6d3c
00000270: ea93 723b a90b 823c ba8e 44bc e182 3d3c
00000280: 9eac 7c3b 6324 e23c d065 363c 844a 293d
00000290: 89a3 efbc 24b8 1bbd 2652 073c bd3e 40bd
000002a0: d868 1c3c 9885 983a 45a2 183d d06a b23b
000002b0: b1a8 cf3a 684a ff3c 8364 9dbc 412f 2dbc
000002c0: 1998 ca3c 68f2 7ab9 31fe 67bc 54d2 70bc
000002d0: 9235 973c f1fe 04bd a9ca 57bc 2240 25bd
000002e0: 4b2a 5cbc 0f5c 8d3c 2f25 12bc 7c70 0d3d
000002f0: 10ea dabc 6a35 cabc 4513 3a3c 9616 5c3b
00000300: 2f70 9abc 7e5e d33c bc3b 1cbc 21cd 013b
00000310: e9ff a63c 0d09 33bd e200 973c 4e1a 443b
00000320: 2a9f 533c 157c 273c a0e1 05bd 7536 7bbc
00000330: 6f44 d1bb eb88 1c3d d5e5 e2bc 7d4f c9bc
00000340: 979b d43c ce1d f9bc 8ad9 6cbc 3a8f c43c
00000350: e26d f03a 4a55 fa3c b15e dbbc 283f 03bd
00000360: 1d77 7d3c cf81 0fbd a984 723c 6e5d ec3b
00000370: 1901 f0bc 4784 29bd c330 34bd a080 e83a
00000380: 9d22 603c 9534 fcbc 1739 78bc ca3b a33b
00000390: ec6f d2bc e6e6 a3bc 2b64 b6bc db9f 07bc
000003a0: d12f b8bc 7253 a23c 281c 84bb e571 8539
000003b0: f884 88bb 0b78 8c3b c463 233b 310a d3bb
000003c0: d772 8bbc 84f9 cbbc 4846 25bd 3ac5 21bd
000003d0: 0e94 0e3c fe41 e6b9 6932 fd3b 693f b33c
000003e0: a2a8 e33c 7939 003c 727d f7bc 9ffc 623c
000003f0: b824 053d 5d92 ddbc 2cb7 16bd 3d15 613c
-0.035930436 -0.013917236 0.029786168 -0.013824015 -0.013657817 0.016644033 -0.0063207382 -0.039668307
-0.037490934 -0.01601422 0.005114702 -0.0340526 0.008245968 0.032467738 0.03566171 -0.019692002
0.034331236 -0.04091864 0.019418167 0.04194853 0.0110766655 0.009283074 -0.01471265 -0.026057055
-0.008341525 -0.020436676 0.030544216 -0.0066992757 -0.014119111 -0.009534424 -0.015395767 0.009419733
0.025388025 0.033667766 -0.022962777 -0.0387431 0.0062338803 0.013057127 0.0031774244 -0.01603414
0.029235736 -0.022683226 -0.010398337 -0.037775226 0.021381201 -0.0009996933 -0.023218218 -0.016570956
0.0221021 0.02510209 -0.03319641 0.028129391 -0.023635922 -0.03180513 0.010057112 0.03043315
0.018558703 -0.004445007 0.009578536 0.021143053 0.021260504 -0.019417211 0.010358384 -0.006619223
0.030729085 0.031269334 0.011783422 -0.038182 0.010593575 -0.025565583 0.026390286 0.019334972
0.023713548 -0.025711397 -0.020304106 0.00047354374 0.022899017 0.023141593 0.011783149 0.023542171
-0.0117979115 -0.020287564 -0.029152729 -0.029567376 0.011436064 0.015588284 -0.019501831 -0.03828185
0.0030619747 -0.0034096413 0.040443543 -0.019971058 -0.026903914 0.031637385 -0.034709346 -0.039323512
-0.04153665 -0.009121506 0.035924703 -0.039055694 -0.027544046 -0.011090425 -0.00686939 0.019230306
-0.026074462 -0.040132698 -0.018812224 -0.04286277 -0.021244606 -0.01570373 0.04359532 -0.011847937
0.025381634 -0.033579886 -0.014503568 -0.008539627 0.00079265377 -0.019250674 -6.14484e-05 -0.008078621
-0.029230854 -0.012125785 0.027490476 -0.02410205 -0.0031162174 0.0027568243 -0.0027328248 -0.036164787
0.0062850504 -0.010981184 -0.015836013 0.006528852 -0.035034653 -0.0004339018 -0.019582082 -0.0071318205
0.0032547559 -0.004436916 0.037015814 -0.022143275 0.023109281 0.044879064 0.013817628 -0.045133136
-0.037501473 -0.02084114 0.016005076 0.0018856095 0.005003332 0.009949948 -0.041604094 0.017209062
0.040495 0.013366516 -0.010049039 0.014507415 0.0037014433 0.0158747 -0.011996919 0.0115668485
0.0038555036 0.027605241 0.011132672 0.04133083 -0.029252784 -0.038017407 0.008259332 -0.046934832
0.009546481 0.0011636494 0.037264127 0.005444862 0.0015843121 0.03116341 -0.019212967 -0.010570348
0.024730729 -0.00023932161 -0.014159725 -0.014698584 0.018458162 -0.032469694 -0.013170877 -0.040344365
-0.013437818 0.017255811 -0.008919998 0.0345311 -0.026722938 -0.024683673 0.011357133 0.0033582798
-0.018852321 0.025801893 -0.009535726 0.0019806104 0.0203857 -0.043709803 0.018433038 0.0029922905
0.012916366 0.010222455 -0.032685876 -0.015332808 -0.0063863317 0.038216513 -0.027697483 -0.024574036
0.025953097 -0.03040972 -0.014456162 0.023994077 0.0018343295 0.030558247 -0.02677855 -0.032042652
0.015470293 -0.035035904 0.014802136 0.007213286 -0.029297398 -0.041385915 -0.043991815 0.0017738529
0.013680127 -0.030786792 -0.01515033 0.0049814926 -0.025688134 -0.020007562 -0.02226456 -0.008277859
-0.022483738 0.01981518 -0.004031677 0.00025452595 -0.0041662417 0.004286771 0.002493129 -0.006440424
-0.017022533 -0.024899252 -0.04035023 -0.03949473 0.008702291 -0.00043918187 0.0077269566 0.021880822
0.027790371 0.007826203 -0.030211184 0.013854175 0.03250572 -0.02704733 -0.03679578 0.013737974

conv3.bias f4 [128]
00000000: 843b 2dbd 25ba 62bb a4e1 54bc eb99 d2bc
00000010: b746 d5bc 06d3 13bd 0844 02bd 32cc 14bd
00000020: 2f92 fb3c 3f79 15bd 31c5 7c3c 4871 973b
00000030: 82eb 0e3d a0de 0ebd 8cf3 22bd 7aea 3abd
00000040: 207e cbbc ee98 b73b a78d 073d 5b9c e4bb
00000050: 2e50 c33c 27a6 3cbb b79d debb ac3f eebc
00000060: 76af 93bc 9600 7c3c 33aa 56bc 975a da3b
00000070: 40e4 a5bc d08f 363d 1d3e 153d ecfb 443c
00000080: a1a1 2abd a43d 1a3d fb3d 103d 2c33 c6bc
00000090: 9a37 0c3b d924 42bc 483b debc 0a5f 3e3c
000000a0: 9cc5 9e3c ddd6 083d 4085 f7ba b7ad a2bc
000000b0: 575f 0b3c 0cbd a53c 9eec 2abd 964f e93c
000000c0: 7c2c 1ebd dd2c dd3c ba9d 113d 11db dfbc
000000d0: 5cdc f839 b36a 14bc f36d 863c 8ac1 113c
000000e0: 14bc ef3c 9b10 2dbd 607a df3b 299f 47bc
000000f0: 6ab0 1abd 7cbc b2bc 5470 70bc 5d21 16bd
00000100: 127b 973b 7dbc 10bc b0aa 21bd ea7d c63c
00000110: d64e e238 d254 dcbc fa26 05bd 2a45 d83c
00000120: d307 283c 28de c13c fbef 1cbd 8c4b 28bd
00000130: 9c69 48bc af0e 693b 54ff 10bd 27aa e13a
00000140: c8ac 8b3b d40c 32bc 9c5b d53c 1717 2abd
00000150: 5888 1a3c b21c 9fbc f8f6 debc 4f34 08bd
00000160: 8121 9abc efc1 943c 6efa bf3c eb83 103d
00000170: 18ca 19bd be31 c43c 7df8 95bc 5000 27bd
00000180: cdd6 60bb c5e1 3a3c da62 26bd 34b4 aa3c
00000190: c767 db3c b798 113c 5fae b8bc 5674 ccba
000001a0: 2ff2 3ebd b803 de3c a7fd 4f3b 9271 4bbd
000001b0: b479 1a3c 2684 5abc 2b50 01bd 2cc0 f7bb
000001c0: 7f98 96bb 47e5 a1bb 3768 033d 931b 4fbc
000001d0: 20ef 23bd 699f 153d 524a 5eba 0557 cabc
000001e0: 2b5c 9cba b522 f93c f6c6 1bbd c6ce cbbc
000001f0: 2c7a 23bd 3314 7bbc bc5e 2bbd 8129 75bc
-0.042293087 -0.0034595814 -0.01299325 -0.02570816 -0.026034696 -0.03608992 -0.03180316 -0.03632755
0.030709354 -0.036492582 0.0154278735 0.0046216585 0.034892567 -0.03488028 -0.039783046 -0.04563377
-0.024840415 0.0056029474 0.033094075 -0.006976647 0.023841944 -0.0028785558 -0.0067937034 -0.029083095
-0.018028002 0.015380999 -0.013102102 0.006663631 -0.02025044 0.044570744 0.03643619 0.0120229535
-0.041658048 0.03765644 0.03521536 -0.024194323 0.0021395446 -0.0118496055 -0.027127877 0.011619339
0.019381337 0.033408035 -0.0018884316 -0.019858224 0.0085066175 0.020231746 -0.041729562 0.028480332
-0.038616642 0.026998932 0.03555081 -0.027326139 0.00047466427 -0.009058642 0.01640985 0.008896241
0.029264487 -0.042252164 0.006820008 -0.012183943 -0.037765898 -0.021818392 -0.014675219 -0.03665291
0.0046228254 -0.008834002 -0.03946942 0.024229962 0.00010791204 -0.026895914 -0.032507874 0.026400167
0.010255772 0.023665503 -0.0383148 -0.041087672 -0.0122322105 0.003556173 -0.03539975 0.0017216847
0.0042625405 -0.010867316 0.02604466 -0.041525926 0.009431921 -0.019422863 -0.027217373 -0.03325301
-0.018814804 0.018158881 0.023434844 0.035282057 -0.037546247 0.0239495 -0.018306965 -0.040771782
-0.0034307719 0.011406367 -0.040621616 0.02083788 0.026782883 0.008886508 -0.022544084 -0.0015598636
-0.046617683 0.027101383 0.0031736882 -0.049668856 0.00942843 -0.013337171 -0.031570595 -0.0075607505
-0.0045958157 -0.004940662 0.03208181 -0.012640852 -0.04002297 0.03652898 -0.00084797025 -0.024699697
-0.0011929324 0.030412057 -0.03803154 -0.02487887 -0.039911434 -0.01532464 -0.041838393 -0.014963509

fc1.weight f4 [512, 128]
00000000: cec7 bbbd 0fbe 7abd 612b 59bd 6ba4 b1bc
00000010: 42c1 0f3b 1192 9e3d 2f21 a4bd 19b0 38bd
00000020: 7fb0 3cbd 49c0 263c 67a9 88bd b9b6 e33c
00000030: fba6 99bd a8d1 f93c c09f 9abd 3223 5abd
00000040: 0a86 823d 598e ed3c fb3a a4bd fa5b 9f3d
00000050: 6925 ccb8 2970 8b3d d8fd 673d 8afb c4bc
00000060: 5ca1 083d 0b67 01bd 3803 e5bc c9ea 84bc
00000070: 26c7 923d 40c4 b6bd c50f 26bc 54c7 52bd
00000080: 2682 79bc cd96 a03d 55d5 7abd 308e 83bb
00000090: e673 973d ce68 993d 4032 3a3d 4912 4cbd
000000a0: d2c3 42bd 43cd 76bd 3391 663d 218f 823c
000000b0: 8089 23bd 1cd7 88bd 1f6e 3fbd 9530 e8bb
000000c0: cfb2 a0bd f5c6 b5bc 0fa6 323d 78f5 87bc
000000d0: b8ef 3e3d e356 39bd bc9b a03d d63c a73c
000000e0: 8f34 55bd c21b 4bbd 1c61 a33c 85a7 353c
000000f0: 325a 903c 5fc0 4c3d 8a9e 523d 4571 56bd
00000100: 27fc 24bc c642 733d 0341 ec3c dcfd 933d
00000110: 5738 653c 77da 533d a551 933d 7988 68bc
00000120: 74b7 113b 02c8 48bd 1502 49bd d48d 01bc
00000130: 39d9 29bd a3c1 32bd 930d f7bc a50b 70bd
00000140: aeff 15bd 5583 0d3d 2ba3 a03d 1291 10bd
00000150: f746 473d 16e7 8f3d 8a92 c1bc d108 833d
00000160: cfd3 acbc 53fd 5e3d 3787 fc3b a4bb a0bb
00000170: 2654 d43c 8451 08bc d8e9 2e3c 0b9b 8cbd
00000180: 6e69 93bd dfe3 783d 69c8 02bd ba0e 9bbd
00000190: 8009 2a3d 67a8 e73c 4996 43bd 248f 5e3d
000001a0: 4feb 3dbd e270 9a3d 4884 823d 23d3 893d
000001b0: d7a2 ddbc 346b 2f3d 56ba acbc 77b1 61bc
000001c0: 304b 0b3d 04fd a43d 4ebc a6bd 1747 9dbd
000001d0: b6e9 4dbd 9c2b dbbc 4c73 9abd 94f0 8fbd
000001e0: f60f 94bd 615a 2b3d 8abb 92bd 3d59 89bd
000001f0: 3da4 86bd d59e 8fbc 3446 11bd 3730 5f3d
00000200: a7c0 53bc aeb7 3b3d a821 163d ba59 bdbc
00000210: 474a 06bd 2fed b13d a4eb 2bbd 12bb 80bd
00000220: 9731 9dbd 39d5 7ebd 280d b83c 6da3 9b3d
00000230: 3ca1 a1bd 0fb4 4fbd 0455 7c3d c6d8 4bbc
00000240: 6b40 e2bc 5acc 51bd 5dc4 59b9 5012 6cbc
00000250: 34a2 2c3d db78 2a3c 3ce1 60bd 1aaa 2b3d
00000260: ef3b b9bd 6c92 283c de5b a7bd cd1b a6bd
00000270: 5d8f 9a3b 2776 a93c 432a 16bd af11 41bc
00000280: ffa6 b13d 14c9 29bc 560e a8bd 1bf0 253c
00000290: 040b f9bb ca59 d83c 9623 4d3d 5a78 bd3d
000002a0: a7e9 14bd 32c1 943d b4c5 aebc 0a22 a6bc
000002b0: 88cf 713d 704d 373c ca1c e13c 6003 93bd
000002c0: 900a 97bd 56a8 043d 45ad 963d 8378 71bd
000002d0: 1459 73bd 36b5 693d 813e 71bd 8fda fdbc
000002e0: 50c6 3fbc ed18 04bd 7e1c 383d 10c3 af3d
000002f0: b7d4 33bd 52b8 5a3c 4fe2 2d39 d0ef 0dbd
00000300: d848 113d 3337 a13b b76f 973d ec49 73bd
00000310: f928 47bd b00b ac3d 7e41 253d c458 62bd
00000320: dc4d d2bc 8470 48bd 1947 53bd 3cfe 5abc
00000330: 7ca5 1bbc 2934 9abd 454e 93bd ded4 983d
00000340: 2484 03bd 2d62 9d3d ceea 4fbd 0476 b83c
00000350: fb2e f2bc 8430 953d 7f8f b7bb bee9 6a3b
00000360: 32cd a6bc 3677 9abb 6dd2 183d 2708 02bd
00000370: 95d6 643d ff18 873b eccb 85bc dda1 9fbd
00000380: 896d a83c 3cf2 803d e17b 5b3d f448 833d
00000390: c2af c9ba 1f64 913d f495 e5bc e237 b23c
000003a0: 33c5 033d a31b 65bd ec40 afbd 0e36 a8bc
000003b0: 2994 c3bc 05d4 753c 42c5 b13d 98d4 5ebc
000003c0: 9976 63bd 8bc6 a5bd eaa6 433d 86a5 8c3a
000003d0: 726e 9fbc 9c61 893c f261 6b3c ba2b aebc
000003e0: 3523 82bd 4f67 87bb 18f8 c43b 29fc 04bd
000003f0: c646 abba c5de 753b 5026 0b3a da73 60bd
-0.09168969 -0.06121641 -0.053019885 -0.021684846 0.002193526 0.07742704 -0.08014142 -0.045089815
-0.046066757 0.01017768 -0.06672936 0.02779709 -0.07502552 0.03049548 -0.07550001 -0.05325622
0.06373222 0.02899854 -0.08019062 0.07781215 -9.734446e-05 0.06808502 0.05663857 -0.024045724
0.03335701 -0.03159241 -0.027955636 -0.016225236 0.07166891 -0.089241505 -0.010135596 -0.051459625
-0.015228784 0.07841263 -0.061238606 -0.004014753 0.07395153 0.07490693 0.04545808 -0.049822126
-0.04755003 -0.060254347 0.056290817 0.01593739 -0.039926052 -0.06681654 -0.04673588 -0.0070858696
-0.07846605 -0.022189597 0.043615397 -0.01659654 0.046615332 -0.045248877 0.07842204 0.020414751
-0.052052077 -0.04958702 0.019943766 0.011087303 0.017621133 0.049988147 0.051420726 -0.052354116
-0.010069883 0.059389852 0.028839594 0.07226154 0.013990483 0.051722016 0.07193307 -0.014192694
0.002223459 -0.049018867 -0.04907425 -0.00790735 -0.041466925 -0.043641698 -0.03015784 -0.058604855
-0.03662079 0.034549076 0.07843622 -0.0352946 0.04865166 0.07026498 -0.023629446 0.06398166
-0.021097092 0.054440808 0.0077065486 -0.004905181 0.025919031 -0.008320216 0.01067587 -0.068655096
-0.071978435 0.06076419 -0.031929407 -0.07571168 0.041512966 0.028278543 -0.047750745 0.05433573
-0.046366986 0.07541062 0.06372887 0.06729724 -0.027055187 0.042826846 -0.021084946 -0.013775221
0.03400725 0.080560714 -0.08141385 -0.07679575 -0.050271712 -0.026754193 -0.075415224 -0.070283085
-0.07229607 0.04183424 -0.071646765 -0.06706474 -0.06574295 -0.017531792 -0.03546734 0.05448934
-0.01292435 0.045829467 0.03665319 -0.023114074 -0.03278568 0.08687817 -0.04197277 -0.06285681
-0.07675474 -0.062215064 0.02246721 0.0759953 -0.07892081 -0.050708827 0.061604515 -0.0124418195
-0.027618608 -0.051220275 -0.00020767884 -0.014408663 0.042146876 0.010404791 -0.0549023 0.04191027
-0.090446346 0.010288816 -0.08171819 -0.08110771 0.0047167973 0.020686222 -0.036661398 -0.011784001
0.0867443 -0.010362882 -0.08205859 0.010128046 -0.00760019 0.026410002 0.050082766 0.09251471
-0.03635564 0.072634116 -0.021334507 -0.020279903 0.059035808 0.011187896 0.027479548 -0.07178378
-0.073750615 0.0323871 0.07357267 -0.05895282 -0.059411123 0.05705758 -0.0588975 -0.030988006
-0.011704996 -0.032250334 0.044949047 0.08582127 -0.043904033 0.013349609 0.00016582872 -0.03465253
0.03546986 0.0049199103 0.07394355 -0.05939667 -0.04862306 0.08400667 0.04034566 -0.055260435
-0.025671892 -0.04893543 -0.051581476 -0.013366278 -0.009499904 -0.0752948 -0.07192663 0.07462476
-0.03210844 0.07684741 -0.050761037 0.022517212 -0.029563418 0.07284644 -0.005601823 0.0035844888
-0.020361517 -0.004713918 0.037310053 -0.031746056 0.055868704 0.004122853 -0.01633259 -0.07794545
0.020560043 0.062962025 0.053584937 0.06410399 -0.0015387463 0.07099175 -0.028025605 0.021755163
0.032170486 -0.05593456 -0.08557305 -0.020533588 -0.02387436 0.015004163 0.08680202 -0.013600491
-0.055533025 -0.0809451 0.047766604 0.0010730482 -0.019461844 0.016770177 0.014366614 -0.021261085
-0.063543715 -0.0041321884 0.0060110204 -0.03246704 -0.0013067357 0.0037516814 0.0005308138 -0.054797985

fc1.bias f4 [512]
00000000: 1eb5 923d 1a04 11bd 2330 68bb 4004 5e3c
00000010: 3d43 b73b 9139 0ebd 4c3b 73bd 9241 813d
00000020: bfb4 92bd a25f c3bc 59e4 95bd 63d3 0d3d
00000030: 7f0f 93bd 0d7e 0abd 3168 8abd d51c e53c
00000040: 40fa 773d 390a 24bd 49ef 1e3c 330b adbc
00000050: 29c8 3a3d 6f36 a1bc ffba 4fbd b1ae 9e3d
00000060: 21a3 9e3d 6e9b adbd 5e65 f1ba 5e1c 7bbc
00000070: 46cf 973d 344f a23d 4f57 963d 89fd 3b3d
00000080: 9e09 8e39 5e10 80bd bf6e 813d fb8e 4ebc
00000090: cb08 2a3b 33d2 543d 4342 193d 57ba 913d
000000a0: b0b1 71bd c957 86bd 85a8 39bc f894 7ebd
000000b0: 0ffc 33bd 07a7 90bc 7d8e 033d 3c7e 773d
000000c0: 22a2 46bd 4335 a9bd 7293 e53b 4a5a df3c
000000d0: 7a15 c0b9 a264 95bd 991d 51bd 8c04 d03c
000000e0: b05e 053d a8b1 2d3d 967d 0a3c 6e03 a73d
000000f0: 5bb6 f1bc 1eac 503d 6e32 56bd 6a48 49bd
00000100: 68be 3ebb 1690 e9bb 6dc2 0f3d 4496 d13c
00000110: e946 3dbd b5cc 82bc ceba 7cbd 77c2 223b
00000120: 4146 803d d4f9 833b 7a9b d03c 9e92 da3a
00000130: 97dd 7e3d 2555 33bd 7021 d5ba 0db3 a93d
00000140: 2d61 7cbd 3f02 2c3d c12c 38bc d6c8 183d
00000150: 8397 91bd b2e9 9abd b76d ad3d 7605 ebbc
00000160: 8cb0 85bd 8914 a2bd eb64 823d 79d8 7a3d
00000170: fdd6 4d3d 43b2 f93c 2077 9c3d 8979 7fbd
00000180: e0fd e33c 9a24 b2bd 1d16 9abd be2e 6abd
00000190: 500f a23d d1dd 57bd 0db4 3abd 8130 983d
000001a0: 3d73 823c b057 ac3d afe5 9f3d aab4 b53b
000001b0: 101d cbbc 3f21 3f3d 65d8 a93d 9bb1 913c
000001c0: 4fae 13bc e731 7a3d 2c43 ec3c ba1c 603d
000001d0: 97f9 993d d065 463d a439 033d 90d0 f7b7
000001e0: ca64 9c3c 220b 833d 6b7e d4bb f910 0a3c
000001f0: b0a3 453d 45c4 ac3b 31b3 4fbd 8500 a93d
00000200: 19b7 6ebd 13fe 56bd 41f1 5cbd ffd8 52bd
00000210: 626d 20bd ed14 413d 2abf 4ebd 2f6f b43c
00000220: 4dd9 063d e990 e73c 7499 97bd e72c 923d
00000230: 82bf 5e3d 2ed4 8b3d 95d9 61bd 87b2 4a3c
00000240: 778a 213d 17e0 a2bd b982 57bd 5059 423d
00000250: 96b9 16bd 1f76 a4bc 3b19 4fbc 68eb 483d
00000260: 3ada 20bd 60b8 863c 34da 883c b9c4 f13b
00000270: fb7b a33d 3d00 b5bd 3e69 60bd 550f 12bd
00000280: c6f9 1b3c 1ab8 823d 9131 f7bc a96e 60bd
00000290: a2f8 92bc aae1 09bd ecf8 5039 ea4b 82bd
000002a0: f7d8 a0bd 68b6 9d3d 5467 9b3d 1a09 e83c
000002b0: 8926 dd3c 99d0 89bd 1273 bdbc 2e08 543d
000002c0: 6b44 393c 9468 413d a3da d93a 3c39 c93c
000002d0: 97fc 7b3d 24bf 283d 2222 bebc 7e49 4f3c
000002e0: f701 1f3d 0372 a43d 29f8 af3d e083 713d
000002f0: 19bf 4a3d 042c aaba 1e19 013b 4183 d6bc
00000300: c237 a93d 9608 3dbd 5fe9 033c df0d 77bd
00000310: 0339 dcbc fc2a 8abd 4df6 94bd b439 6b3d
00000320: 3b8d 2f3d 70dc 693d 75d9 0d3c 29c6 b33d
00000330: 6c01 26bd 6ca8 85bd dc4c 3d3d e56e 083d
00000340: 582b f4bb f324 b3bd 0bec 1ebd fc84 daba
00000350: cf20 8e3c 35dc d5bc 0f48 94bd bedc d43b
00000360: 81af 4abc 1114 03bc 85ab e83c d27f 92bd
00000370: 9647 c23b b0d5 fabc 002f 8ebd 55ea 5abd
00000380: afd7 be3c e772 6dbd 074e 193d 33aa 9d3d
00000390: cf84 5dbd e73a 1e3d 4971 a4bd 4357 7d3d
000003a0: aa9e 9cbb 32d3 823d 05c6 d1bb a07c a1bd
000003b0: 6e27 42bd 888c bd3b 4eab 643d 008a 24bd
000003c0: 375a aebd e983 87bd 6b35 233c 8ebb 88bd
000003d0: 5aec 993d 92b6 eebc 9e9e e8bc f6fb 89bd
000003e0: 27a9 853d 2de3 8f3d 9e19 06bd 5351 cfbc
000003f0: 003f 5f3d 24d7 88bd 59a3 2c3d 2673 c4bc
0.071634516 -0.035404302 -0.0035429082 0.013550818 0.005592732 -0.03472287 -0.05938272 0.06311335
-0.07163381 -0.023849312 -0.073189445 0.034625422 -0.0718069 -0.033811618 -0.06758154 0.02796785
0.06054139 -0.04004881 0.009700605 -0.021123504 0.045601044 -0.019679276 -0.050715443 0.077481635
0.07745958 -0.084769115 -0.0018417051 -0.0153265875 0.07412581 0.07925263 0.073408715 0.045896087
0.00027091516 -0.06253122 0.06319951 -0.012607331 0.0025945182 0.051958274 0.037416708 0.0711562
-0.059007347 -0.065597124 -0.011331682 -0.062153786 -0.043941554 -0.01765777 0.03211831 0.06042312
-0.048494466 -0.08262112 0.0070061022 0.027264733 -0.00036637095 -0.07294585 -0.051053617 0.025392793
0.032561004 0.042405754 0.008452794 0.08154951 -0.0295059 0.050945394 -0.052294187 -0.049141325
-0.002910519 -0.007127772 0.03509753 0.025584348 -0.046210203 -0.015966753 -0.06170159 0.0024835148
0.062634 0.0040275846 0.025464762 0.0016675775 0.062223043 -0.043782372 -0.0016260576 0.08286104
-0.06161611 0.04199433 -0.011241139 0.037300907 -0.07108977 -0.07564105 0.08468192 -0.028689127
-0.06527814 -0.07914073 0.06366905 0.0612416 0.050253857 0.03048051 0.07639909 -0.062371764
0.027831018 -0.086983874 -0.07523749 -0.057173483 0.07913077 -0.052701775 -0.045581866 0.074311264
0.01592409 0.084151626 0.078074805 0.0055452185 -0.024794132 0.046662565 0.08293227 0.017784884
-0.009013726 0.061082747 0.028840624 0.054714896 0.075183086 0.04843694 0.032037392 -2.9541814e-05
0.019091029 0.06398608 -0.0064847968 0.008426898 0.048251808 0.0052724206 -0.050708 0.08252052
-0.058280084 -0.052488398 -0.053941015 -0.051476475 -0.039166816 0.047139097 -0.050475277 0.022025673
0.032922078 0.02826734 -0.07402316 0.07137471 0.054381855 0.068275794 -0.055139143 0.012371666
0.03943869 -0.07952898 -0.0526149 0.047448456 -0.036798082 -0.020075856 -0.012640293 0.049052626
-0.039270617 0.016445339 0.01670561 0.0073781875 0.07982632 -0.08837936 -0.054787867 -0.035659153
0.00952 0.06382771 -0.030175002 -0.054793034 -0.017940823 -0.033662476 0.00019929156 -0.06362136
-0.07853883 0.07700807 0.07588068 0.028324652 0.026995914 -0.0672924 -0.023126159 0.051765613
0.011307816 0.047218874 0.0016620945 0.024563424 0.061520185 0.04119791 -0.023209635 0.012651799
0.038820233 0.080295585 0.08592255 0.058963656 0.04949865 -0.0012983088 0.001969881 -0.026185634
0.08262588 -0.046150766 0.0080512455 -0.060315963 -0.026882654 -0.0674648 -0.07273541 0.057428077
0.042859297 0.05709499 0.008657803 0.087780304 -0.0405287 -0.065262645 0.046215877 0.033308882
-0.007451456 -0.08747282 -0.038799327 -0.0016671713 0.017349629 -0.02610598 -0.072403066 0.006496041
-0.012370945 -0.00800039 0.0284021 -0.07153286 0.005928944 -0.030619472 -0.06942558 -0.053446133
0.023296205 -0.057970908 0.03742793 0.076984785 -0.054081734 0.038630392 -0.0802942 0.061850797
-0.0047796564 0.063879386 -0.0064017796 -0.078850985 -0.047400884 0.005784575 0.05582743 -0.04017067
-0.08513301 -0.06616957 0.009961466 -0.06676398 0.075157836 -0.02913979 -0.028395947 -0.06737511
0.06526404 0.07025752 -0.032739274 -0.025307333 0.05450344 -0.0668166 0.042147968 -0.023980688
